…
[INFO|/scratch/e1507650/AnyOrderTraining/aomt/dFactory/VeOmni/veomni/distributed/torch_parallelize.py:583] 03/22/2026 16:53:07 >> Apply data parallel to the model: fsdp2.
[INFO|/scratch/e1507650/AnyOrderTraining/aomt/dFactory/VeOmni/veomni/distributed/torch_parallelize.py:311] 03/22/2026 16:53:07 >> target classes to shard: {'LLaDA2MoeDecoderLayer'}
[INFO|/scratch/e1507650/AnyOrderTraining/aomt/dFactory/VeOmni/veomni/distributed/torch_parallelize.py:369] 03/22/2026 16:53:07 >> extra_parallel layer pairs: {'model.layers.0': (LLaDA2MoeDecoderLayer(
  (attention): LLaDA2MoeSdpaAttention(
    (query_key_value): Linear(in_features=2048, out_features=3072, bias=False)
    (query_layernorm): LLaDA2MoeRMSNorm()
    (key_layernorm): LLaDA2MoeRMSNorm()
    (dense): Linear(in_features=2048, out_features=2048, bias=False)
  )
  (mlp): LLaDA2MoeMLP(
    (gate_proj): Linear(in_features=2048, out_features=5120, bias=False)
    (up_proj): Linear(in_features=2048, out_features=5120, bias=False)
    (down_proj): Linear(in_features=5120, out_features=2048, bias=False)
    (act_fn): SiLUActivation()
  )
  (input_layernorm): LLaDA2MoeRMSNorm()
  (post_attention_layernorm): LLaDA2MoeRMSNorm()
), {}), 'model.layers.1': (LLaDA2MoeDecoderLayer(
  (attention): LLaDA2MoeSdpaAttention(
    (query_key_value): Linear(in_features=2048, out_features=3072, bias=False)
    (query_layernorm): LLaDA2MoeRMSNorm()
    (key_layernorm): LLaDA2MoeRMSNorm()
    (dense): Linear(in_features=2048, out_features=2048, bias=False)
  )
  (mlp): LLaDA2MoeSparseMoeBlock(
    (experts): LLaDA2MoeExperts(
      (act_fn): SiLUActivation()
    )
    (gate): LLaDA2MoeGate()
    (shared_experts): LLaDA2MoeMLP(
      (gate_proj): Linear(in_features=2048, out_features=512, bias=False)
      (up_proj): Linear(in_features=2048, out_features=512, bias=False)
      (down_proj): Linear(in_features=512, out_features=2048, bias=False)
      (act_fn): SiLUActivation()
    )
  )
  (input_layernorm): LLaDA2MoeRMSNorm()
  (post_attention_layernorm): LLaDA2MoeRMSNorm()
), {}), 'model.layers.2': (LLaDA2MoeDecoderLayer(
  (attention): LLaDA2MoeSdpaAttention(
    (query_key_value): Linear(in_features=2048, out_features=3072, bias=False)
    (query_layernorm): LLaDA2MoeRMSNorm()
    (key_layernorm): LLaDA2MoeRMSNorm()
    (dense): Linear(in_features=2048, out_features=2048, bias=False)
  )
  (mlp): LLaDA2MoeSparseMoeBlock(
    (experts): LLaDA2MoeExperts(
      (act_fn): SiLUActivation()
    )
    (gate): LLaDA2MoeGate()
    (shared_experts): LLaDA2MoeMLP(
      (gate_proj): Linear(in_features=2048, out_features=512, bias=False)
      (up_proj): Linear(in_features=2048, out_features=512, bias=False)
      (down_proj): Linear(in_features=512, out_features=2048, bias=False)
      (act_fn): SiLUActivation()
    )
  )
  (input_layernorm): LLaDA2MoeRMSNorm()
  (post_attention_layernorm): LLaDA2MoeRMSNorm()
), {}), 'model.layers.3': (LLaDA2MoeDecoderLayer(
  (attention): LLaDA2MoeSdpaAttention(
    (query_key_value): Linear(in_features=2048, out_features=3072, bias=False)
    (query_layernorm): LLaDA2MoeRMSNorm()
    (key_layernorm): LLaDA2MoeRMSNorm()
    (dense): Linear(in_features=2048, out_features=2048, bias=False)
  )
  (mlp): LLaDA2MoeSparseMoeBlock(
    (experts): LLaDA2MoeExperts(
      (act_fn): SiLUActivation()
    )
    (gate): LLaDA2MoeGate()
    (shared_experts): LLaDA2MoeMLP(
      (gate_proj): Linear(in_features=2048, out_features=512, bias=False)
      (up_proj): Linear(in_features=2048, out_features=512, bias=False)
      (down_proj): Linear(in_features=512, out_features=2048, bias=False)
      (act_fn): SiLUActivation()
    )
  )
  (input_layernorm): LLaDA2MoeRMSNorm()
  (post_attention_layernorm): LLaDA2MoeRMSNorm()
), {}), 'model.layers.4': (LLaDA2MoeDecoderLayer(
  (attention): LLaDA2MoeSdpaAttention(
    (query_key_value): Linear(in_features=2048, out_features=3072, bias=False)
    (query_layernorm): LLaDA2MoeRMSNorm()
    (key_layernorm): LLaDA2MoeRMSNorm()
    (dense): Linear(in_features=2048, out_features=2048, bias=False)
  )
  (mlp): LLaDA2MoeSparseMoeBlock(
    (experts): LLaDA2MoeExperts(
      (act_fn): SiLUActivation()
    )
    (gate): LLaDA2MoeGate()
    (shared_experts): LLaDA2MoeMLP(
      (gate_proj): Linear(in_features=2048, out_features=512, bias=False)
      (up_proj): Linear(in_features=2048, out_features=512, bias=False)
      (down_proj): Linear(in_features=512, out_features=2048, bias=False)
      (act_fn): SiLUActivation()
    )
  )
  (input_layernorm): LLaDA2MoeRMSNorm()
  (post_attention_layernorm): LLaDA2MoeRMSNorm()
), {}), 'model.layers.5': (LLaDA2MoeDecoderLayer(
  (attention): LLaDA2MoeSdpaAttention(
    (query_key_value): Linear(in_features=2048, out_features=3072, bias=False)
    (query_layernorm): LLaDA2MoeRMSNorm()
    (key_layernorm): LLaDA2MoeRMSNorm()
    (dense): Linear(in_features=2048, out_features=2048, bias=False)
  )
  (mlp): LLaDA2MoeSparseMoeBlock(
    (experts): LLaDA2MoeExperts(
      (act_fn): SiLUActivation()
    )
    (gate): LLaDA2MoeGate()
    (shared_experts): LLaDA2MoeMLP(
      (gate_proj): Linear(in_features=2048, out_features=512, bias=False)
      (up_proj): Linear(in_features=2048, out_features=512, bias=False)
      (down_proj): Linear(in_features=512, out_features=2048, bias=False)
      (act_fn): SiLUActivation()
    )
  )
  (input_layernorm): LLaDA2MoeRMSNorm()
  (post_attention_layernorm): LLaDA2MoeRMSNorm()
), {}), 'model.layers.6': (LLaDA2MoeDecoderLayer(
  (attention): LLaDA2MoeSdpaAttention(
    (query_key_value): Linear(in_features=2048, out_features=3072, bias=False)
    (query_layernorm): LLaDA2MoeRMSNorm()
    (key_layernorm): LLaDA2MoeRMSNorm()
    (dense): Linear(in_features=2048, out_features=2048, bias=False)
  )
  (mlp): LLaDA2MoeSparseMoeBlock(
    (experts): LLaDA2MoeExperts(
      (act_fn): SiLUActivation()
    )
    (gate): LLaDA2MoeGate()
    (shared_experts): LLaDA2MoeMLP(
      (gate_proj): Linear(in_features=2048, out_features=512, bias=False)
      (up_proj): Linear(in_features=2048, out_features=512, bias=False)
      (down_proj): Linear(in_features=512, out_features=2048, bias=False)
      (act_fn): SiLUActivation()
    )
  )
  (input_layernorm): LLaDA2MoeRMSNorm()
  (post_attention_layernorm): LLaDA2MoeRMSNorm()
), {}), 'model.layers.7': (LLaDA2MoeDecoderLayer(
  (attention): LLaDA2MoeSdpaAttention(
    (query_key_value): Linear(in_features=2048, out_features=3072, bias=False)
    (query_layernorm): LLaDA2MoeRMSNorm()
    (key_layernorm): LLaDA2MoeRMSNorm()
    (dense): Linear(in_features=2048, out_features=2048, bias=False)
  )
  (mlp): LLaDA2MoeSparseMoeBlock(
    (experts): LLaDA2MoeExperts(
      (act_fn): SiLUActivation()
    )
    (gate): LLaDA2MoeGate()
    (shared_experts): LLaDA2MoeMLP(
      (gate_proj): Linear(in_features=2048, out_features=512, bias=False)
      (up_proj): Linear(in_features=2048, out_features=512, bias=False)
      (down_proj): Linear(in_features=512, out_features=2048, bias=False)
      (act_fn): SiLUActivation()
    )
  )
  (input_layernorm): LLaDA2MoeRMSNorm()
  (post_attention_layernorm): LLaDA2MoeRMSNorm()
), {}), 'model.layers.8': (LLaDA2MoeDecoderLayer(
  (attention): LLaDA2MoeSdpaAttention(
    (query_key_value): Linear(in_features=2048, out_features=3072, bias=False)
    (query_layernorm): LLaDA2MoeRMSNorm()
    (key_layernorm): LLaDA2MoeRMSNorm()
    (dense): Linear(in_features=2048, out_features=2048, bias=False)
  )
  (mlp): LLaDA2MoeSparseMoeBlock(
    (experts): LLaDA2MoeExperts(
      (act_fn): SiLUActivation()
    )
    (gate): LLaDA2MoeGate()
    (shared_experts): LLaDA2MoeMLP(
      (gate_proj): Linear(in_features=2048, out_features=512, bias=False)
      (up_proj): Linear(in_features=2048, out_features=512, bias=False)
      (down_proj): Linear(in_features=512, out_features=2048, bias=False)
      (act_fn): SiLUActivation()
    )
  )
  (input_layernorm): LLaDA2MoeRMSNorm()
  (post_attention_layernorm): LLaDA2MoeRMSNorm()
), {}), 'model.layers.9': (LLaDA2MoeDecoderLayer(
  (attention): LLaDA2MoeSdpaAttention(
    (query_key_value): Linear(in_features=2048, out_features=3072, bias=False)
    (query_layernorm): LLaDA2MoeRMSNorm()
    (key_layernorm): LLaDA2MoeRMSNorm()
    (dense): Linear(in_features=2048, out_features=2048, bias=False)
  )
  (mlp): LLaDA2MoeSparseMoeBlock(
    (experts): LLaDA2MoeExperts(
      (act_fn): SiLUActivation()
    )
    (gate): LLaDA2MoeGate()
    (shared_experts): LLaDA2MoeMLP(
      (gate_proj): Linear(in_features=2048, out_features=512, bias=False)
      (up_proj): Linear(in_features=2048, out_features=512, bias=False)
      (down_proj): Linear(in_features=512, out_features=2048, bias=False)
      (act_fn): SiLUActivation()
    )
  )
  (input_layernorm): LLaDA2MoeRMSNorm()
  (post_attention_layernorm): LLaDA2MoeRMSNorm()
), {}), 'model.layers.10': (LLaDA2MoeDecoderLayer(
  (attention): LLaDA2MoeSdpaAttention(
    (query_key_value): Linear(in_features=2048, out_features=3072, bias=False)
    (query_layernorm): LLaDA2MoeRMSNorm()
    (key_layernorm): LLaDA2MoeRMSNorm()
    (dense): Linear(in_features=2048, out_features=2048, bias=False)
  )
  (mlp): LLaDA2MoeSparseMoeBlock(
    (experts): LLaDA2MoeExperts(
      (act_fn): SiLUActivation()
    )
    (gate): LLaDA2MoeGate()
    (shared_experts): LLaDA2MoeMLP(
      (gate_proj): Linear(in_features=2048, out_features=512, bias=False)
      (up_proj): Linear(in_features=2048, out_features=512, bias=False)
      (down_proj): Linear(in_features=512, out_features=2048, bias=False)
      (act_fn): SiLUActivation()
    )
  )
  (input_layernorm): LLaDA2MoeRMSNorm()
  (post_attention_layernorm): LLaDA2MoeRMSNorm()
), {}), 'model.layers.11': (LLaDA2MoeDecoderLayer(
  (attention): LLaDA2MoeSdpaAttention(
    (query_key_value): Linear(in_features=2048, out_features=3072, bias=False)
    (query_layernorm): LLaDA2MoeRMSNorm()
    (key_layernorm): LLaDA2MoeRMSNorm()
    (dense): Linear(in_features=2048, out_features=2048, bias=False)
  )
  (mlp): LLaDA2MoeSparseMoeBlock(
    (experts): LLaDA2MoeExperts(
      (act_fn): SiLUActivation()
    )
    (gate): LLaDA2MoeGate()
    (shared_experts): LLaDA2MoeMLP(
      (gate_proj): Linear(in_features=2048, out_features=512, bias=False)
      (up_proj): Linear(in_features=2048, out_features=512, bias=False)
      (down_proj): Linear(in_features=512, out_features=2048, bias=False)
      (act_fn): SiLUActivation()
    )
  )
  (input_layernorm): LLaDA2MoeRMSNorm()
  (post_attention_layernorm): LLaDA2MoeRMSNorm()
), {}), 'model.layers.12': (LLaDA2MoeDecoderLayer(
  (attention): LLaDA2MoeSdpaAttention(
    (query_key_value): Linear(in_features=2048, out_features=3072, bias=False)
    (query_layernorm): LLaDA2MoeRMSNorm()
    (key_layernorm): LLaDA2MoeRMSNorm()
    (dense): Linear(in_features=2048, out_features=2048, bias=False)
  )
  (mlp): LLaDA2MoeSparseMoeBlock(
    (experts): LLaDA2MoeExperts(
      (act_fn): SiLUActivation()
    )
    (gate): LLaDA2MoeGate()
    (shared_experts): LLaDA2MoeMLP(
      (gate_proj): Linear(in_features=2048, out_features=512, bias=False)
      (up_proj): Linear(in_features=2048, out_features=512, bias=False)
      (down_proj): Linear(in_features=512, out_features=2048, bias=False)
      (act_fn): SiLUActivation()
    )
  )
  (input_layernorm): LLaDA2MoeRMSNorm()
  (post_attention_layernorm): LLaDA2MoeRMSNorm()
), {}), 'model.layers.13': (LLaDA2MoeDecoderLayer(
  (attention): LLaDA2MoeSdpaAttention(
    (query_key_value): Linear(in_features=2048, out_features=3072, bias=False)
    (query_layernorm): LLaDA2MoeRMSNorm()
    (key_layernorm): LLaDA2MoeRMSNorm()
    (dense): Linear(in_features=2048, out_features=2048, bias=False)
  )
  (mlp): LLaDA2MoeSparseMoeBlock(
    (experts): LLaDA2MoeExperts(
      (act_fn): SiLUActivation()
    )
    (gate): LLaDA2MoeGate()
    (shared_experts): LLaDA2MoeMLP(
      (gate_proj): Linear(in_features=2048, out_features=512, bias=False)
      (up_proj): Linear(in_features=2048, out_features=512, bias=False)
      (down_proj): Linear(in_features=512, out_features=2048, bias=False)
      (act_fn): SiLUActivation()
    )
  )
  (input_layernorm): LLaDA2MoeRMSNorm()
  (post_attention_layernorm): LLaDA2MoeRMSNorm()
), {}), 'model.layers.14': (LLaDA2MoeDecoderLayer(
  (attention): LLaDA2MoeSdpaAttention(
    (query_key_value): Linear(in_features=2048, out_features=3072, bias=False)
    (query_layernorm): LLaDA2MoeRMSNorm()
    (key_layernorm): LLaDA2MoeRMSNorm()
    (dense): Linear(in_features=2048, out_features=2048, bias=False)
  )
  (mlp): LLaDA2MoeSparseMoeBlock(
    (experts): LLaDA2MoeExperts(
      (act_fn): SiLUActivation()
    )
    (gate): LLaDA2MoeGate()
    (shared_experts): LLaDA2MoeMLP(
      (gate_proj): Linear(in_features=2048, out_features=512, bias=False)
      (up_proj): Linear(in_features=2048, out_features=512, bias=False)
      (down_proj): Linear(in_features=512, out_features=2048, bias=False)
      (act_fn): SiLUActivation()
    )
  )
  (input_layernorm): LLaDA2MoeRMSNorm()
  (post_attention_layernorm): LLaDA2MoeRMSNorm()
), {}), 'model.layers.15': (LLaDA2MoeDecoderLayer(
  (attention): LLaDA2MoeSdpaAttention(
    (query_key_value): Linear(in_features=2048, out_features=3072, bias=False)
    (query_layernorm): LLaDA2MoeRMSNorm()
    (key_layernorm): LLaDA2MoeRMSNorm()
    (dense): Linear(in_features=2048, out_features=2048, bias=False)
  )
  (mlp): LLaDA2MoeSparseMoeBlock(
    (experts): LLaDA2MoeExperts(
      (act_fn): SiLUActivation()
    )
    (gate): LLaDA2MoeGate()
    (shared_experts): LLaDA2MoeMLP(
      (gate_proj): Linear(in_features=2048, out_features=512, bias=False)
      (up_proj): Linear(in_features=2048, out_features=512, bias=False)
      (down_proj): Linear(in_features=512, out_features=2048, bias=False)
      (act_fn): SiLUActivation()
    )
  )
  (input_layernorm): LLaDA2MoeRMSNorm()
  (post_attention_layernorm): LLaDA2MoeRMSNorm()
), {}), 'model.layers.16': (LLaDA2MoeDecoderLayer(
  (attention): LLaDA2MoeSdpaAttention(
    (query_key_value): Linear(in_features=2048, out_features=3072, bias=False)
    (query_layernorm): LLaDA2MoeRMSNorm()
    (key_layernorm): LLaDA2MoeRMSNorm()
    (dense): Linear(in_features=2048, out_features=2048, bias=False)
  )
  (mlp): LLaDA2MoeSparseMoeBlock(
    (experts): LLaDA2MoeExperts(
      (act_fn): SiLUActivation()
    )
    (gate): LLaDA2MoeGate()
    (shared_experts): LLaDA2MoeMLP(
      (gate_proj): Linear(in_features=2048, out_features=512, bias=False)
      (up_proj): Linear(in_features=2048, out_features=512, bias=False)
      (down_proj): Linear(in_features=512, out_features=2048, bias=False)
      (act_fn): SiLUActivation()
    )
  )
  (input_layernorm): LLaDA2MoeRMSNorm()
  (post_attention_layernorm): LLaDA2MoeRMSNorm()
), {}), 'model.layers.17': (LLaDA2MoeDecoderLayer(
  (attention): LLaDA2MoeSdpaAttention(
    (query_key_value): Linear(in_features=2048, out_features=3072, bias=False)
    (query_layernorm): LLaDA2MoeRMSNorm()
    (key_layernorm): LLaDA2MoeRMSNorm()
    (dense): Linear(in_features=2048, out_features=2048, bias=False)
  )
  (mlp): LLaDA2MoeSparseMoeBlock(
    (experts): LLaDA2MoeExperts(
      (act_fn): SiLUActivation()
    )
    (gate): LLaDA2MoeGate()
    (shared_experts): LLaDA2MoeMLP(
      (gate_proj): Linear(in_features=2048, out_features=512, bias=False)
      (up_proj): Linear(in_features=2048, out_features=512, bias=False)
      (down_proj): Linear(in_features=512, out_features=2048, bias=False)
      (act_fn): SiLUActivation()
    )
  )
  (input_layernorm): LLaDA2MoeRMSNorm()
  (post_attention_layernorm): LLaDA2MoeRMSNorm()
), {}), 'model.layers.18': (LLaDA2MoeDecoderLayer(
  (attention): LLaDA2MoeSdpaAttention(
    (query_key_value): Linear(in_features=2048, out_features=3072, bias=False)
    (query_layernorm): LLaDA2MoeRMSNorm()
    (key_layernorm): LLaDA2MoeRMSNorm()
    (dense): Linear(in_features=2048, out_features=2048, bias=False)
  )
  (mlp): LLaDA2MoeSparseMoeBlock(
    (experts): LLaDA2MoeExperts(
      (act_fn): SiLUActivation()
    )
    (gate): LLaDA2MoeGate()
    (shared_experts): LLaDA2MoeMLP(
      (gate_proj): Linear(in_features=2048, out_features=512, bias=False)
      (up_proj): Linear(in_features=2048, out_features=512, bias=False)
      (down_proj): Linear(in_features=512, out_features=2048, bias=False)
      (act_fn): SiLUActivation()
    )
  )
  (input_layernorm): LLaDA2MoeRMSNorm()
  (post_attention_layernorm): LLaDA2MoeRMSNorm()
), {}), 'model.layers.19': (LLaDA2MoeDecoderLayer(
  (attention): LLaDA2MoeSdpaAttention(
    (query_key_value): Linear(in_features=2048, out_features=3072, bias=False)
    (query_layernorm): LLaDA2MoeRMSNorm()
    (key_layernorm): LLaDA2MoeRMSNorm()
    (dense): Linear(in_features=2048, out_features=2048, bias=False)
  )
  (mlp): LLaDA2MoeSparseMoeBlock(
    (experts): LLaDA2MoeExperts(
      (act_fn): SiLUActivation()
    )
    (gate): LLaDA2MoeGate()
    (shared_experts): LLaDA2MoeMLP(
      (gate_proj): Linear(in_features=2048, out_features=512, bias=False)
      (up_proj): Linear(in_features=2048, out_features=512, bias=False)
      (down_proj): Linear(in_features=512, out_features=2048, bias=False)
      (act_fn): SiLUActivation()
    )
  )
  (input_layernorm): LLaDA2MoeRMSNorm()
  (post_attention_layernorm): LLaDA2MoeRMSNorm()
), {})}
[INFO|/scratch/e1507650/AnyOrderTraining/aomt/dFactory/VeOmni/veomni/distributed/torch_parallelize.py:486] 03/22/2026 16:53:07 >> layer_fqn='model.layers.0', layer_mod._fsdp_modules=[FSDPLLaDA2MoeDecoderLayer(
  (attention): LLaDA2MoeSdpaAttention(
    (query_key_value): Linear(in_features=2048, out_features=3072, bias=False)
    (query_layernorm): LLaDA2MoeRMSNorm()
    (key_layernorm): LLaDA2MoeRMSNorm()
    (dense): Linear(in_features=2048, out_features=2048, bias=False)
  )
  (mlp): LLaDA2MoeMLP(
    (gate_proj): Linear(in_features=2048, out_features=5120, bias=False)
    (up_proj): Linear(in_features=2048, out_features=5120, bias=False)
    (down_proj): Linear(in_features=5120, out_features=2048, bias=False)
    (act_fn): SiLUActivation()
  )
  (input_layernorm): LLaDA2MoeRMSNorm()
  (post_attention_layernorm): LLaDA2MoeRMSNorm()
)]
[INFO|/scratch/e1507650/AnyOrderTraining/aomt/dFactory/VeOmni/veomni/distributed/torch_parallelize.py:486] 03/22/2026 16:53:07 >> layer_fqn='model.layers.1', layer_mod._fsdp_modules=[FSDPLLaDA2MoeDecoderLayer(
  (attention): LLaDA2MoeSdpaAttention(
    (query_key_value): Linear(in_features=2048, out_features=3072, bias=False)
    (query_layernorm): LLaDA2MoeRMSNorm()
    (key_layernorm): LLaDA2MoeRMSNorm()
    (dense): Linear(in_features=2048, out_features=2048, bias=False)
  )
  (mlp): LLaDA2MoeSparseMoeBlock(
    (experts): LLaDA2MoeExperts(
      (act_fn): SiLUActivation()
    )
    (gate): LLaDA2MoeGate()
    (shared_experts): LLaDA2MoeMLP(
      (gate_proj): Linear(in_features=2048, out_features=512, bias=False)
      (up_proj): Linear(in_features=2048, out_features=512, bias=False)
      (down_proj): Linear(in_features=512, out_features=2048, bias=False)
      (act_fn): SiLUActivation()
    )
  )
  (input_layernorm): LLaDA2MoeRMSNorm()
  (post_attention_layernorm): LLaDA2MoeRMSNorm()
)]
[INFO|/scratch/e1507650/AnyOrderTraining/aomt/dFactory/VeOmni/veomni/distributed/torch_parallelize.py:486] 03/22/2026 16:53:07 >> layer_fqn='model.layers.2', layer_mod._fsdp_modules=[FSDPLLaDA2MoeDecoderLayer(
  (attention): LLaDA2MoeSdpaAttention(
    (query_key_value): Linear(in_features=2048, out_features=3072, bias=False)
    (query_layernorm): LLaDA2MoeRMSNorm()
    (key_layernorm): LLaDA2MoeRMSNorm()
    (dense): Linear(in_features=2048, out_features=2048, bias=False)
  )
  (mlp): LLaDA2MoeSparseMoeBlock(
    (experts): LLaDA2MoeExperts(
      (act_fn): SiLUActivation()
    )
    (gate): LLaDA2MoeGate()
    (shared_experts): LLaDA2MoeMLP(
      (gate_proj): Linear(in_features=2048, out_features=512, bias=False)
      (up_proj): Linear(in_features=2048, out_features=512, bias=False)
      (down_proj): Linear(in_features=512, out_features=2048, bias=False)
      (act_fn): SiLUActivation()
    )
  )
  (input_layernorm): LLaDA2MoeRMSNorm()
  (post_attention_layernorm): LLaDA2MoeRMSNorm()
)]
[INFO|/scratch/e1507650/AnyOrderTraining/aomt/dFactory/VeOmni/veomni/distributed/torch_parallelize.py:486] 03/22/2026 16:53:07 >> layer_fqn='model.layers.3', layer_mod._fsdp_modules=[FSDPLLaDA2MoeDecoderLayer(
  (attention): LLaDA2MoeSdpaAttention(
    (query_key_value): Linear(in_features=2048, out_features=3072, bias=False)
    (query_layernorm): LLaDA2MoeRMSNorm()
    (key_layernorm): LLaDA2MoeRMSNorm()
    (dense): Linear(in_features=2048, out_features=2048, bias=False)
  )
  (mlp): LLaDA2MoeSparseMoeBlock(
    (experts): LLaDA2MoeExperts(
      (act_fn): SiLUActivation()
    )
    (gate): LLaDA2MoeGate()
    (shared_experts): LLaDA2MoeMLP(
      (gate_proj): Linear(in_features=2048, out_features=512, bias=False)
      (up_proj): Linear(in_features=2048, out_features=512, bias=False)
      (down_proj): Linear(in_features=512, out_features=2048, bias=False)
      (act_fn): SiLUActivation()
    )
  )
  (input_layernorm): LLaDA2MoeRMSNorm()
  (post_attention_layernorm): LLaDA2MoeRMSNorm()
)]
[INFO|/scratch/e1507650/AnyOrderTraining/aomt/dFactory/VeOmni/veomni/distributed/torch_parallelize.py:486] 03/22/2026 16:53:07 >> layer_fqn='model.layers.4', layer_mod._fsdp_modules=[FSDPLLaDA2MoeDecoderLayer(
  (attention): LLaDA2MoeSdpaAttention(
    (query_key_value): Linear(in_features=2048, out_features=3072, bias=False)
    (query_layernorm): LLaDA2MoeRMSNorm()
    (key_layernorm): LLaDA2MoeRMSNorm()
    (dense): Linear(in_features=2048, out_features=2048, bias=False)
  )
  (mlp): LLaDA2MoeSparseMoeBlock(
    (experts): LLaDA2MoeExperts(
      (act_fn): SiLUActivation()
    )
    (gate): LLaDA2MoeGate()
    (shared_experts): LLaDA2MoeMLP(
      (gate_proj): Linear(in_features=2048, out_features=512, bias=False)
      (up_proj): Linear(in_features=2048, out_features=512, bias=False)
      (down_proj): Linear(in_features=512, out_features=2048, bias=False)
      (act_fn): SiLUActivation()
    )
  )
  (input_layernorm): LLaDA2MoeRMSNorm()
  (post_attention_layernorm): LLaDA2MoeRMSNorm()
)]
[INFO|/scratch/e1507650/AnyOrderTraining/aomt/dFactory/VeOmni/veomni/distributed/torch_parallelize.py:486] 03/22/2026 16:53:07 >> layer_fqn='model.layers.5', layer_mod._fsdp_modules=[FSDPLLaDA2MoeDecoderLayer(
  (attention): LLaDA2MoeSdpaAttention(
    (query_key_value): Linear(in_features=2048, out_features=3072, bias=False)
    (query_layernorm): LLaDA2MoeRMSNorm()
    (key_layernorm): LLaDA2MoeRMSNorm()
    (dense): Linear(in_features=2048, out_features=2048, bias=False)
  )
  (mlp): LLaDA2MoeSparseMoeBlock(
    (experts): LLaDA2MoeExperts(
      (act_fn): SiLUActivation()
    )
    (gate): LLaDA2MoeGate()
    (shared_experts): LLaDA2MoeMLP(
      (gate_proj): Linear(in_features=2048, out_features=512, bias=False)
      (up_proj): Linear(in_features=2048, out_features=512, bias=False)
      (down_proj): Linear(in_features=512, out_features=2048, bias=False)
      (act_fn): SiLUActivation()
    )
  )
  (input_layernorm): LLaDA2MoeRMSNorm()
  (post_attention_layernorm): LLaDA2MoeRMSNorm()
)]
[INFO|/scratch/e1507650/AnyOrderTraining/aomt/dFactory/VeOmni/veomni/distributed/torch_parallelize.py:486] 03/22/2026 16:53:07 >> layer_fqn='model.layers.6', layer_mod._fsdp_modules=[FSDPLLaDA2MoeDecoderLayer(
  (attention): LLaDA2MoeSdpaAttention(
    (query_key_value): Linear(in_features=2048, out_features=3072, bias=False)
    (query_layernorm): LLaDA2MoeRMSNorm()
    (key_layernorm): LLaDA2MoeRMSNorm()
    (dense): Linear(in_features=2048, out_features=2048, bias=False)
  )
  (mlp): LLaDA2MoeSparseMoeBlock(
    (experts): LLaDA2MoeExperts(
      (act_fn): SiLUActivation()
    )
    (gate): LLaDA2MoeGate()
    (shared_experts): LLaDA2MoeMLP(
      (gate_proj): Linear(in_features=2048, out_features=512, bias=False)
      (up_proj): Linear(in_features=2048, out_features=512, bias=False)
      (down_proj): Linear(in_features=512, out_features=2048, bias=False)
      (act_fn): SiLUActivation()
    )
  )
  (input_layernorm): LLaDA2MoeRMSNorm()
  (post_attention_layernorm): LLaDA2MoeRMSNorm()
)]
[INFO|/scratch/e1507650/AnyOrderTraining/aomt/dFactory/VeOmni/veomni/distributed/torch_parallelize.py:486] 03/22/2026 16:53:07 >> layer_fqn='model.layers.7', layer_mod._fsdp_modules=[FSDPLLaDA2MoeDecoderLayer(
  (attention): LLaDA2MoeSdpaAttention(
    (query_key_value): Linear(in_features=2048, out_features=3072, bias=False)
    (query_layernorm): LLaDA2MoeRMSNorm()
    (key_layernorm): LLaDA2MoeRMSNorm()
    (dense): Linear(in_features=2048, out_features=2048, bias=False)
  )
  (mlp): LLaDA2MoeSparseMoeBlock(
    (experts): LLaDA2MoeExperts(
      (act_fn): SiLUActivation()
    )
    (gate): LLaDA2MoeGate()
    (shared_experts): LLaDA2MoeMLP(
      (gate_proj): Linear(in_features=2048, out_features=512, bias=False)
      (up_proj): Linear(in_features=2048, out_features=512, bias=False)
      (down_proj): Linear(in_features=512, out_features=2048, bias=False)
      (act_fn): SiLUActivation()
    )
  )
  (input_layernorm): LLaDA2MoeRMSNorm()
  (post_attention_layernorm): LLaDA2MoeRMSNorm()
)]
[INFO|/scratch/e1507650/AnyOrderTraining/aomt/dFactory/VeOmni/veomni/distributed/torch_parallelize.py:486] 03/22/2026 16:53:07 >> layer_fqn='model.layers.8', layer_mod._fsdp_modules=[FSDPLLaDA2MoeDecoderLayer(
  (attention): LLaDA2MoeSdpaAttention(
    (query_key_value): Linear(in_features=2048, out_features=3072, bias=False)
    (query_layernorm): LLaDA2MoeRMSNorm()
    (key_layernorm): LLaDA2MoeRMSNorm()
    (dense): Linear(in_features=2048, out_features=2048, bias=False)
  )
  (mlp): LLaDA2MoeSparseMoeBlock(
    (experts): LLaDA2MoeExperts(
      (act_fn): SiLUActivation()
    )
    (gate): LLaDA2MoeGate()
    (shared_experts): LLaDA2MoeMLP(
      (gate_proj): Linear(in_features=2048, out_features=512, bias=False)
      (up_proj): Linear(in_features=2048, out_features=512, bias=False)
      (down_proj): Linear(in_features=512, out_features=2048, bias=False)
      (act_fn): SiLUActivation()
    )
  )
  (input_layernorm): LLaDA2MoeRMSNorm()
  (post_attention_layernorm): LLaDA2MoeRMSNorm()
)]
[INFO|/scratch/e1507650/AnyOrderTraining/aomt/dFactory/VeOmni/veomni/distributed/torch_parallelize.py:486] 03/22/2026 16:53:07 >> layer_fqn='model.layers.9', layer_mod._fsdp_modules=[FSDPLLaDA2MoeDecoderLayer(
  (attention): LLaDA2MoeSdpaAttention(
    (query_key_value): Linear(in_features=2048, out_features=3072, bias=False)
    (query_layernorm): LLaDA2MoeRMSNorm()
    (key_layernorm): LLaDA2MoeRMSNorm()
    (dense): Linear(in_features=2048, out_features=2048, bias=False)
  )
  (mlp): LLaDA2MoeSparseMoeBlock(
    (experts): LLaDA2MoeExperts(
      (act_fn): SiLUActivation()
    )
    (gate): LLaDA2MoeGate()
    (shared_experts): LLaDA2MoeMLP(
      (gate_proj): Linear(in_features=2048, out_features=512, bias=False)
      (up_proj): Linear(in_features=2048, out_features=512, bias=False)
      (down_proj): Linear(in_features=512, out_features=2048, bias=False)
      (act_fn): SiLUActivation()
    )
  )
  (input_layernorm): LLaDA2MoeRMSNorm()
  (post_attention_layernorm): LLaDA2MoeRMSNorm()
)]
[INFO|/scratch/e1507650/AnyOrderTraining/aomt/dFactory/VeOmni/veomni/distributed/torch_parallelize.py:486] 03/22/2026 16:53:07 >> layer_fqn='model.layers.10', layer_mod._fsdp_modules=[FSDPLLaDA2MoeDecoderLayer(
  (attention): LLaDA2MoeSdpaAttention(
    (query_key_value): Linear(in_features=2048, out_features=3072, bias=False)
    (query_layernorm): LLaDA2MoeRMSNorm()
    (key_layernorm): LLaDA2MoeRMSNorm()
    (dense): Linear(in_features=2048, out_features=2048, bias=False)
  )
  (mlp): LLaDA2MoeSparseMoeBlock(
    (experts): LLaDA2MoeExperts(
      (act_fn): SiLUActivation()
    )
    (gate): LLaDA2MoeGate()
    (shared_experts): LLaDA2MoeMLP(
      (gate_proj): Linear(in_features=2048, out_features=512, bias=False)
      (up_proj): Linear(in_features=2048, out_features=512, bias=False)
      (down_proj): Linear(in_features=512, out_features=2048, bias=False)
      (act_fn): SiLUActivation()
    )
  )
  (input_layernorm): LLaDA2MoeRMSNorm()
  (post_attention_layernorm): LLaDA2MoeRMSNorm()
)]
[INFO|/scratch/e1507650/AnyOrderTraining/aomt/dFactory/VeOmni/veomni/distributed/torch_parallelize.py:486] 03/22/2026 16:53:07 >> layer_fqn='model.layers.11', layer_mod._fsdp_modules=[FSDPLLaDA2MoeDecoderLayer(
  (attention): LLaDA2MoeSdpaAttention(
    (query_key_value): Linear(in_features=2048, out_features=3072, bias=False)
    (query_layernorm): LLaDA2MoeRMSNorm()
    (key_layernorm): LLaDA2MoeRMSNorm()
    (dense): Linear(in_features=2048, out_features=2048, bias=False)
  )
  (mlp): LLaDA2MoeSparseMoeBlock(
    (experts): LLaDA2MoeExperts(
      (act_fn): SiLUActivation()
    )
    (gate): LLaDA2MoeGate()
    (shared_experts): LLaDA2MoeMLP(
      (gate_proj): Linear(in_features=2048, out_features=512, bias=False)
      (up_proj): Linear(in_features=2048, out_features=512, bias=False)
      (down_proj): Linear(in_features=512, out_features=2048, bias=False)
      (act_fn): SiLUActivation()
    )
  )
  (input_layernorm): LLaDA2MoeRMSNorm()
  (post_attention_layernorm): LLaDA2MoeRMSNorm()
)]
[INFO|/scratch/e1507650/AnyOrderTraining/aomt/dFactory/VeOmni/veomni/distributed/torch_parallelize.py:486] 03/22/2026 16:53:07 >> layer_fqn='model.layers.12', layer_mod._fsdp_modules=[FSDPLLaDA2MoeDecoderLayer(
  (attention): LLaDA2MoeSdpaAttention(
    (query_key_value): Linear(in_features=2048, out_features=3072, bias=False)
    (query_layernorm): LLaDA2MoeRMSNorm()
    (key_layernorm): LLaDA2MoeRMSNorm()
    (dense): Linear(in_features=2048, out_features=2048, bias=False)
  )
  (mlp): LLaDA2MoeSparseMoeBlock(
    (experts): LLaDA2MoeExperts(
      (act_fn): SiLUActivation()
    )
    (gate): LLaDA2MoeGate()
    (shared_experts): LLaDA2MoeMLP(
      (gate_proj): Linear(in_features=2048, out_features=512, bias=False)
      (up_proj): Linear(in_features=2048, out_features=512, bias=False)
      (down_proj): Linear(in_features=512, out_features=2048, bias=False)
      (act_fn): SiLUActivation()
    )
  )
  (input_layernorm): LLaDA2MoeRMSNorm()
  (post_attention_layernorm): LLaDA2MoeRMSNorm()
)]
[INFO|/scratch/e1507650/AnyOrderTraining/aomt/dFactory/VeOmni/veomni/distributed/torch_parallelize.py:486] 03/22/2026 16:53:07 >> layer_fqn='model.layers.13', layer_mod._fsdp_modules=[FSDPLLaDA2MoeDecoderLayer(
  (attention): LLaDA2MoeSdpaAttention(
    (query_key_value): Linear(in_features=2048, out_features=3072, bias=False)
    (query_layernorm): LLaDA2MoeRMSNorm()
    (key_layernorm): LLaDA2MoeRMSNorm()
    (dense): Linear(in_features=2048, out_features=2048, bias=False)
  )
  (mlp): LLaDA2MoeSparseMoeBlock(
    (experts): LLaDA2MoeExperts(
      (act_fn): SiLUActivation()
    )
    (gate): LLaDA2MoeGate()
    (shared_experts): LLaDA2MoeMLP(
      (gate_proj): Linear(in_features=2048, out_features=512, bias=False)
      (up_proj): Linear(in_features=2048, out_features=512, bias=False)
      (down_proj): Linear(in_features=512, out_features=2048, bias=False)
      (act_fn): SiLUActivation()
    )
  )
  (input_layernorm): LLaDA2MoeRMSNorm()
  (post_attention_layernorm): LLaDA2MoeRMSNorm()
)]
[INFO|/scratch/e1507650/AnyOrderTraining/aomt/dFactory/VeOmni/veomni/distributed/torch_parallelize.py:486] 03/22/2026 16:53:07 >> layer_fqn='model.layers.14', layer_mod._fsdp_modules=[FSDPLLaDA2MoeDecoderLayer(
  (attention): LLaDA2MoeSdpaAttention(
    (query_key_value): Linear(in_features=2048, out_features=3072, bias=False)
    (query_layernorm): LLaDA2MoeRMSNorm()
    (key_layernorm): LLaDA2MoeRMSNorm()
    (dense): Linear(in_features=2048, out_features=2048, bias=False)
  )
  (mlp): LLaDA2MoeSparseMoeBlock(
    (experts): LLaDA2MoeExperts(
      (act_fn): SiLUActivation()
    )
    (gate): LLaDA2MoeGate()
    (shared_experts): LLaDA2MoeMLP(
      (gate_proj): Linear(in_features=2048, out_features=512, bias=False)
      (up_proj): Linear(in_features=2048, out_features=512, bias=False)
      (down_proj): Linear(in_features=512, out_features=2048, bias=False)
      (act_fn): SiLUActivation()
    )
  )
  (input_layernorm): LLaDA2MoeRMSNorm()
  (post_attention_layernorm): LLaDA2MoeRMSNorm()
)]
[INFO|/scratch/e1507650/AnyOrderTraining/aomt/dFactory/VeOmni/veomni/distributed/torch_parallelize.py:486] 03/22/2026 16:53:07 >> layer_fqn='model.layers.15', layer_mod._fsdp_modules=[FSDPLLaDA2MoeDecoderLayer(
  (attention): LLaDA2MoeSdpaAttention(
    (query_key_value): Linear(in_features=2048, out_features=3072, bias=False)
    (query_layernorm): LLaDA2MoeRMSNorm()
    (key_layernorm): LLaDA2MoeRMSNorm()
    (dense): Linear(in_features=2048, out_features=2048, bias=False)
  )
  (mlp): LLaDA2MoeSparseMoeBlock(
    (experts): LLaDA2MoeExperts(
      (act_fn): SiLUActivation()
    )
    (gate): LLaDA2MoeGate()
    (shared_experts): LLaDA2MoeMLP(
      (gate_proj): Linear(in_features=2048, out_features=512, bias=False)
      (up_proj): Linear(in_features=2048, out_features=512, bias=False)
      (down_proj): Linear(in_features=512, out_features=2048, bias=False)
      (act_fn): SiLUActivation()
    )
  )
  (input_layernorm): LLaDA2MoeRMSNorm()
  (post_attention_layernorm): LLaDA2MoeRMSNorm()
)]
[INFO|/scratch/e1507650/AnyOrderTraining/aomt/dFactory/VeOmni/veomni/distributed/torch_parallelize.py:486] 03/22/2026 16:53:07 >> layer_fqn='model.layers.16', layer_mod._fsdp_modules=[FSDPLLaDA2MoeDecoderLayer(
  (attention): LLaDA2MoeSdpaAttention(
    (query_key_value): Linear(in_features=2048, out_features=3072, bias=False)
    (query_layernorm): LLaDA2MoeRMSNorm()
    (key_layernorm): LLaDA2MoeRMSNorm()
    (dense): Linear(in_features=2048, out_features=2048, bias=False)
  )
  (mlp): LLaDA2MoeSparseMoeBlock(
    (experts): LLaDA2MoeExperts(
      (act_fn): SiLUActivation()
    )
    (gate): LLaDA2MoeGate()
    (shared_experts): LLaDA2MoeMLP(
      (gate_proj): Linear(in_features=2048, out_features=512, bias=False)
      (up_proj): Linear(in_features=2048, out_features=512, bias=False)
      (down_proj): Linear(in_features=512, out_features=2048, bias=False)
      (act_fn): SiLUActivation()
    )
  )
  (input_layernorm): LLaDA2MoeRMSNorm()
  (post_attention_layernorm): LLaDA2MoeRMSNorm()
)]
[INFO|/scratch/e1507650/AnyOrderTraining/aomt/dFactory/VeOmni/veomni/distributed/torch_parallelize.py:486] 03/22/2026 16:53:07 >> layer_fqn='model.layers.17', layer_mod._fsdp_modules=[FSDPLLaDA2MoeDecoderLayer(
  (attention): LLaDA2MoeSdpaAttention(
    (query_key_value): Linear(in_features=2048, out_features=3072, bias=False)
    (query_layernorm): LLaDA2MoeRMSNorm()
    (key_layernorm): LLaDA2MoeRMSNorm()
    (dense): Linear(in_features=2048, out_features=2048, bias=False)
  )
  (mlp): LLaDA2MoeSparseMoeBlock(
    (experts): LLaDA2MoeExperts(
      (act_fn): SiLUActivation()
    )
    (gate): LLaDA2MoeGate()
    (shared_experts): LLaDA2MoeMLP(
      (gate_proj): Linear(in_features=2048, out_features=512, bias=False)
      (up_proj): Linear(in_features=2048, out_features=512, bias=False)
      (down_proj): Linear(in_features=512, out_features=2048, bias=False)
      (act_fn): SiLUActivation()
    )
  )
  (input_layernorm): LLaDA2MoeRMSNorm()
  (post_attention_layernorm): LLaDA2MoeRMSNorm()
)]
[INFO|/scratch/e1507650/AnyOrderTraining/aomt/dFactory/VeOmni/veomni/distributed/torch_parallelize.py:486] 03/22/2026 16:53:07 >> layer_fqn='model.layers.18', layer_mod._fsdp_modules=[FSDPLLaDA2MoeDecoderLayer(
  (attention): LLaDA2MoeSdpaAttention(
    (query_key_value): Linear(in_features=2048, out_features=3072, bias=False)
    (query_layernorm): LLaDA2MoeRMSNorm()
    (key_layernorm): LLaDA2MoeRMSNorm()
    (dense): Linear(in_features=2048, out_features=2048, bias=False)
  )
  (mlp): LLaDA2MoeSparseMoeBlock(
    (experts): LLaDA2MoeExperts(
      (act_fn): SiLUActivation()
    )
    (gate): LLaDA2MoeGate()
    (shared_experts): LLaDA2MoeMLP(
      (gate_proj): Linear(in_features=2048, out_features=512, bias=False)
      (up_proj): Linear(in_features=2048, out_features=512, bias=False)
      (down_proj): Linear(in_features=512, out_features=2048, bias=False)
      (act_fn): SiLUActivation()
    )
  )
  (input_layernorm): LLaDA2MoeRMSNorm()
  (post_attention_layernorm): LLaDA2MoeRMSNorm()
)]
[INFO|/scratch/e1507650/AnyOrderTraining/aomt/dFactory/VeOmni/veomni/distributed/torch_parallelize.py:486] 03/22/2026 16:53:07 >> layer_fqn='model.layers.19', layer_mod._fsdp_modules=[FSDPLLaDA2MoeDecoderLayer(
  (attention): LLaDA2MoeSdpaAttention(
    (query_key_value): Linear(in_features=2048, out_features=3072, bias=False)
    (query_layernorm): LLaDA2MoeRMSNorm()
    (key_layernorm): LLaDA2MoeRMSNorm()
    (dense): Linear(in_features=2048, out_features=2048, bias=False)
  )
  (mlp): LLaDA2MoeSparseMoeBlock(
    (experts): LLaDA2MoeExperts(
      (act_fn): SiLUActivation()
    )
    (gate): LLaDA2MoeGate()
    (shared_experts): LLaDA2MoeMLP(
      (gate_proj): Linear(in_features=2048, out_features=512, bias=False)
      (up_proj): Linear(in_features=2048, out_features=512, bias=False)
      (down_proj): Linear(in_features=512, out_features=2048, bias=False)
      (act_fn): SiLUActivation()
    )
  )
  (input_layernorm): LLaDA2MoeRMSNorm()
  (post_attention_layernorm): LLaDA2MoeRMSNorm()
)]
[INFO|/scratch/e1507650/AnyOrderTraining/aomt/dFactory/VeOmni/veomni/distributed/torch_parallelize.py:520] 03/22/2026 16:53:07 >> starting to load model weights...
[INFO|/scratch/e1507650/AnyOrderTraining/aomt/dFactory/VeOmni/veomni/distributed/torch_parallelize.py:525] 03/22/2026 16:53:07 >> Every rank would read weights from disk and expect this to be slow!
…
